model.pt (torch, 960938 bytes, 20 tensors)

enc1_conv.weight f4 [16, 3, 3, 3]
00000000: 9b95 c63d edaa 08be 8e99 0c3e 247b b0bd
00000010: f706 21bd 3b8b e2bd a5a7 2dbe 1c67 25bd
00000020: 1372 093d 29da cf3c 9d31 c9bd 8c08 90bd
00000030: 619b c83d 3539 e6bd 5ae4 063e 2471 d5bd
00000040: d72c 40bd d877 063d d100 11be d27d 243e
00000050: 8d2c 363d b80b abbc 7d11 90bc e0a7 2c3e
00000060: 9b2d 913d 3a17 faba 9a32 b43d 3159 a4bd
00000070: fe8b 2abe 551e e93c 5511 2bbe 5e30 2abc
00000080: 6dfa e33c cf55 2e3e f8df 093e 1f05 55bd
00000090: f9a0 28be 57a9 fbbd 53cf 3e3d 1ec5 bebd
000000a0: 2e01 913d 77f0 2d3d dcec 7a3c 48df 783e
000000b0: 87d0 29bd 192f 463e 8a42 c3bb 88b4 8a3c
000000c0: 4242 28be 51d5 433e 587f 6abd 7469 13be
000000d0: 924d aabd 2e11 783e 2194 b8bc e003 313d
000000e0: 319f 163e 3a20 1cbe acfb 8abd 9064 e2bc
000000f0: 9543 92bd b606 0bbe 249a bfbc 66d6 23be
00000100: 5d8f 70bd 5c2d 60bd 1028 b7bd df69 6bbd
00000110: 91a7 343d 9499 bb3c e022 6ebc 7935 be38
00000120: 70f0 e6bd 77e6 6d3c 961a 91bd a148 5c3e
00000130: f810 343b aaaa df3d ac6a 683e fac9 a83d
00000140: 9371 e93c 9441 373e 219a 3e3d a977 8c3c
00000150: 10bc 113d 276c 373e 7d2d 433e f846 cb3a
00000160: 3c9b 0cbe f151 b13d df16 c9bd 1744 bf3c
00000170: a893 cf3c f220 e2bd fa69 3fbd b7b2 f9bc
00000180: 6084 363d 1dab a0bd 523f 30be 83e2 5b3d
00000190: b343 e53b 7e4f e73d 845b 753d 7b5b 313e
000001a0: ba59 d13d 64b8 e53d 0da4 203e 8934 ee3d
000001b0: 8ddd de3d b36d 16be 9a11 ff3c 82ef 9c3c
000001c0: 6b96 33bd 4e86 0ebe d9c8 7f3d e7b2 32be
000001d0: 2051 02be a14d c9bc 535e 20bd 2583 c3bd
000001e0: 4d8e 243d f69d 273d 9dde f23c 3694 19be
000001f0: 3ba8 483d 28ce d7bd 501a c2bb 3c69 0abe
00000200: d215 ad3b 6bf3 b6bd da86 eebd a687 0f3e
00000210: 86fd b33d 5d51 283e 820b 94bd 2e70 17bd
00000220: 376f 17be 9396 edbd d1c2 2d3d 2731 32bd
00000230: f6a9 65bc dd24 b5bc c0f6 09bd 89f5 c83d
00000240: c45d 913d 2b60 283d 02f8 573e 3434 0dbe
00000250: a93c 143e 880e b9bc c78e bc3d 10a6 a03b
00000260: fe62 8cbd 863f 7fbd 76d4 46bd 828e 05be
00000270: 1aa4 c5bc cd46 d2bd e687 093e 727f 853d
00000280: 3230 e53c 129f a739 6e3f 243d 6409 f4bd
00000290: 9346 503e e3ab 10be e859 173e 83f4 533e
000002a0: 95a8 6d3d 192a 393e f379 263e 2691 36be
000002b0: 71c4 ebbc 7304 41be 9a25 ebbd b3ab 91bd
000002c0: 26a2 5ebd 148d 16be 3f92 c63d 822f 383d
000002d0: 9297 403d 8497 0c3e fbf7 82bd 1072 fd3d
000002e0: b5e8 f6bd 2a3a 39be fc71 0bbb 262f 79bd
000002f0: c3a0 f63b 5283 943d aee0 febd 446c 77bd
00000300: 4d8d d23d b380 083e fc79 4e3e 7802 ce3d
00000310: 6452 4b3e 422d 973d 9e18 6f3c fa5f db3d
00000320: 8364 afbd a804 f1bd 008e d9bd 809a 4b3d
00000330: e316 143e 7559 863d 7e01 ebbd 3362 11be
00000340: 0286 12be 6402 9fbc 380e c5bd 7e8e 3b3d
00000350: d7f4 1dbe 420d 313e aebb 5c3b 2380 6f3d
00000360: 5df0 433e 63ad 263e e471 c03b cdc9 8c3d
00000370: d519 fcbd b226 0bbe 7652 84bd 43b0 c6bd
00000380: 832c 9e3d bbea 1d3e c54c 3b3e 7437 06be
00000390: 4d1b bebd d23c 8b3d 7286 59bd 0e2d bd3d
000003a0: 293d 8cbd 0499 0b3e 47a1 273e 57c7 d9bd
000003b0: 934d 313e cda5 c23d c908 1cbe 9097 8c3d
000003c0: 8839 4fbd 5bd2 fbbd 117c 3abc 2eac ff3d
000003d0: 2727 fdbc 98ac 863b 0d44 183d 7043 473e
000003e0: 6fc9 253e f2e7 273d 3dea 433d 2b8f ccbd
000003f0: fdde 313e f13a 44be 8754 f53c 7a5b 31be
0.09696504 -0.13346453 0.13730451 -0.08617237 -0.039313283 -0.11061712 -0.16958483 -0.040381536
0.033556055 0.025372582 -0.09823916 -0.0703288 0.09795261 -0.1124138 0.13173047 -0.104219705
-0.046917763 0.032829136 -0.14160468 0.16063622 0.04447608 -0.020879611 -0.017586464 0.16860914
0.07088777 -0.0019080408 0.08798714 -0.080248244 -0.16654965 0.028456846 -0.1670583 -0.010387508
0.027829373 0.17024921 0.13464344 -0.052006837 -0.16467656 -0.122881584 0.04658444 -0.09314941
0.07080303 0.042465653 0.015315261 0.24303925 -0.041458633 0.19353904 -0.00595886 0.016931787
-0.16431525 0.19124343 -0.05725035 -0.14395696 -0.083155766 0.24225304 -0.02253157 0.043216586
0.14709164 -0.15246668 -0.06786284 -0.027635843 -0.071417965 -0.13576779 -0.02338893 -0.15999755
-0.058730472 -0.054730758 -0.08943188 -0.057474013 0.044105116 0.02290038 -0.014534682 9.069866e-05
-0.112763286 0.014520279 -0.07085149 0.2151208 0.0027475934 0.109212235 0.22696942 0.08241649
0.02849654 0.1789611 0.046533708 0.017146902 0.03557974 0.1791235 0.19060321 0.0015508821
-0.13731092 0.08658207 -0.098188154 0.023347897 0.025338963 -0.1104144 -0.046731927 -0.030480726
0.044559836 -0.07845137 -0.17211655 0.053682815 0.0069965958 0.11294459 0.05990173 0.17320053
0.10222192 0.1121681 0.1568758 0.11631114 0.10882101 -0.14690284 0.031136323 0.019157175
-0.04384462 -0.1391842 0.062447403 -0.17451058 -0.12726259 -0.02457315 -0.039152455 -0.09546498
0.04017477 0.040922128 0.029647166 -0.14997944 0.048988562 -0.10537368 -0.005923547 -0.13516706
0.005282142 -0.08933147 -0.11646815 0.1401659 0.0878859 0.16437288 -0.072287574 -0.036972217
-0.14788519 -0.116009854 0.04242212 -0.043503907 -0.014017573 -0.022112304 -0.033682585 0.09812457
0.070979625 0.041107338 0.21090701 -0.13789445 0.14476265 -0.022589937 0.0920692 0.0049026087
-0.06854819 -0.06231644 -0.048542462 -0.13042644 -0.024126101 -0.102674104 0.13430747 0.06518449
0.027977083 0.0003197124 0.040099554 -0.119158536 0.20339422 -0.1412807 0.1478039 0.20698743
0.0580221 0.18082465 0.16257457 -0.17828807 -0.028780194 -0.18849353 -0.11481781 -0.07112827
-0.054353856 -0.14702255 0.09695863 0.044967182 0.04701955 0.13729674 -0.06394955 0.12375271
-0.12056104 -0.18088594 -0.0021277657 -0.06083598 0.0075264885 0.0725161 -0.12445198 -0.060405985
0.10280857 0.13330345 0.20163721 0.100590646 0.19855648 0.07381679 0.014593272 0.107116655
-0.08564093 -0.11768466 -0.106227875 0.04970789 0.14461856 0.06560031 -0.11474894 -0.14197616
-0.14308932 -0.01941032 -0.09621853 0.045790188 -0.1542543 0.17290214 0.0033681202 0.05847181
0.1913466 0.1627708 0.005872952 0.06874428 -0.123096146 -0.1358898 -0.06461041 -0.09701588
0.07723334 0.15421574 0.18291004 -0.13107091 -0.09282551 0.0679871 -0.053106733 0.09237109
-0.06847603 0.1363259 0.16370116 -0.10633724 0.17314748 0.0950428 -0.15237726 0.06864846
-0.050591975 -0.122959815 -0.011382119 0.124840125 -0.030902458 0.0041099302 0.037174273 0.19459319
0.16190122 0.040992685 0.04783081 -0.099882446 0.1737022 -0.1916311 0.029947532 -0.17320052

enc1_conv.bias f4 [16]
00000000: ab67 ae3d 7704 1abe ab7c 203e 90b9 a23d
00000010: ae9d 3c3e 2522 323e e3b5 163e f9ed 0bbe
00000020: f6d5 163e e59d 23be 39b1 cd3d 35dc 003e
00000030: 267f 25be 0223 1cbe 5d67 873c 2c0d 523e
0.08515867 -0.15040766 0.15672557 0.079455495 0.18419525 0.17395838 0.14717822 -0.13664998
0.14730057 -0.159782 0.10043568 0.12584002 -0.16161785 -0.1524773 0.01652878 0.20512837

enc3_conv.weight f4 [32, 16, 3, 3]
00000000: a987 02bd 9f32 bc3d f6e3 203c 105f 823d
00000010: bed9 873d ac43 b03d 81b4 ef3d 3e27 193e
00000020: e04b 073e ebe7 863e 38cb 6b3e 14cc 3a3e
00000030: 2c9e 4d3e 0378 80bb 4318 053e 2333 d53c
00000040: 41b2 313d cb27 f73d f819 17bd f39e df3c
00000050: 92cf 26bd 5de9 693d 4bac 92bd 5528 6bbd
00000060: e443 e2bc 8437 11bb e80a 743d 6f45 9f3d
00000070: 3839 d53d 664e b63d b77a d43c cc2a 30bb
00000080: cf76 5cbd 243a cf3c cdcb a93c b030 7abd
00000090: e917 9abc 1336 123d 48da 243d d0b5 bbbd
000000a0: d147 bb3d 86c3 81bd ed82 043b e615 8a3d
000000b0: cab4 b53d 07a7 ecbc 91fd 3f3d 60ba cb3b
000000c0: 639c 953d 7d5f 423d ba63 da3c 03e4 75bd
000000d0: 9a84 31bc 99c9 89bb 1cd3 1abd aa0c d53c
000000e0: 7c4b 193d 76b8 8fbc ec12 193d 967d 0ebd
000000f0: c2bf 83bd 7d4c 823d e353 debc d0ab f83c
00000100: 67f5 27bc 378b 99bd fab6 3e3d 1a66 dc3c
00000110: 493e c3bd 0b52 0fbd 039c 64bd 9e9e 353c
00000120: 6b6f f03c 3ba6 9fbc fb5d 963d df00 9b3d
00000130: 8180 03bd 25c3 953d 76ed 073d 6333 01bd
00000140: a73f 0cbd b9b8 043d 42e7 1e3d b2dd 4c3d
00000150: 6cd1 3fbd c775 6ebd 5ad7 583d b5d2 f13b
00000160: d160 873d ad38 96bd a189 623d be8e 463a
00000170: 9619 adbd 165b 9fbd 400b 483c 0dae c4bd
00000180: bfa3 b5bd fb99 4dbd 1768 c9bb 1638 6abc
00000190: 9214 693d aa06 84bd 9f69 913d daf6 1dbd
000001a0: 2d54 7bbd 515d db3c cc0e 65bc a915 5cbb
000001b0: 93e4 9a3d e07a 2a3d 4a47 afbd fe02 903c
000001c0: 3fd6 10bc 055c d3bd 4909 86bd b78a b03c
000001d0: 02a0 16bd d150 dd3d aa58 b9bc a517 19bd
000001e0: addf 493d ba04 b2bd 3554 5c3d af9e a9bd
000001f0: 3e2a 76bd 6163 a1bd decd 64bc 2fc8 2dbc
00000200: a3a7 ad3d 676f a73d 38e5 51bd 247c b7bc
00000210: 6c3c 2fbd e73f ed3c e7d1 8f3c a6b1 cebc
00000220: ea79 513d e497 89bd 97a9 c5bc 533c 383d
00000230: d437 bb3d da40 89bd b412 2a3c 84d2 373d
00000240: e3c7 0fbd 594d e8bc ebcf d73d 1ad4 8e3d
00000250: 6804 f93d 35a1 23bc 07db 103e b1d1 a53d
00000260: a646 a73d 3e4e 013e 4d58 173e 691d 353e
00000270: 1203 0dbd 7a6e 8a3d aec6 303e 5467 393b
00000280: 94a4 523e 267c 823d 182c 123c 1ecf c73d
00000290: 0683 893d 40a1 a7bc 69ed d9bc abfc 56bd
000002a0: c7ac 09bc d3e8 afbc 9afa b83d 813c 3d3d
000002b0: b126 a73d 18ed debc 77c5 7dbc aa5c 8bbd
000002c0: c572 1dbb 1381 59bd c25e 6f3d 6f86 263d
000002d0: 226c 523d ad31 01bd 7c07 593c 320a 9ebc
000002e0: 15a2 96bc b888 a13d 735c 703d 224a cf3d
000002f0: edcd 013d 9005 6bbd eb02 09bc 3eaf c33c
00000300: 0dd1 e2bb 2422 c1bd 904a 213c 3455 23bd
00000310: 67b4 b1bd e6cf 8b3d 1766 7cbd 73db 6cbc
00000320: fab8 f13c 54cb 5cbd cebc 20bd db4a b13d
00000330: 9392 803d abec 71bd 2fd7 963c e370 0e3d
00000340: 7861 6a3d 3893 753d 93f5 a1bd 9316 9abd
00000350: 9a63 20bd 5f30 8cbd f28e b4bd 60fc a63d
00000360: 35ea a13d 38f7 04bd 282c 62bd 2f5f c9bc
00000370: b1b6 db3c d1b2 d1bc c236 54bd 6c11 303d
00000380: 9232 03bd a85a 153d 42a2 903d 5404 a53d
00000390: 13f2 483d 714e a33d deae f03d e234 7cbc
000003a0: 32f5 4abd e113 d43d c00e 3ebb d039 db3c
000003b0: 50be b7bc 6802 72bd c2a8 80bd ed84 143b
000003c0: 9196 c1bd 53a8 c2bd 90eb 493d c6c3 b0bd
000003d0: 46c6 99bd 03f1 983d ff75 5a3d 4a60 b43c
000003e0: 8e67 31bb 3bef 8fbd 236a 00bd 99e7 83bc
000003f0: 9070 f53c 3a10 ef3d 6d12 983d 1365 85bd
-0.031867657 0.09189343 0.009819975 0.06365788 0.06633328 0.086066574 0.1170435 0.14956376
0.13212538 0.26348814 0.2302674 0.18241912 0.20079869 -0.0039205565 0.12997536 0.02602536
0.043382887 0.12068137 -0.03689 0.027297473 -0.0407253 0.05710732 -0.071617685 -0.05741151
-0.027620263 -0.0022158334 0.059580714 0.07776915 0.10411304 0.08901672 0.025937421 -0.0026880978
-0.053824242 0.025296278 0.020727063 -0.06108159 -0.01881023 0.0356961 0.04024723 -0.09165537
0.09144557 -0.06336121 0.002021964 0.06742458 0.088723734 -0.028888239 0.04687268 0.006217286
0.07305219 0.047454346 0.026658881 -0.060031902 -0.010834837 -0.0042049405 -0.037798986 0.026007015
0.037425503 -0.017544013 0.03737156 -0.034787737 -0.06433059 0.06362245 -0.02713961 0.030355364
-0.01025138 -0.07497256 0.04656122 0.026904155 -0.09533364 -0.03499035 -0.055812847 0.011085181
0.029350003 -0.019488445 0.07342144 0.075685255 -0.032104973 0.073126115 0.033185445 -0.031543147
-0.03424039 0.032402728 0.038794763 0.050016113 -0.04683058 -0.05821779 0.05293975 0.0073798546
0.06610263 -0.07335029 0.055307034 0.0007574371 -0.08452146 -0.07781045 0.012209713 -0.0960351
-0.08869123 -0.050195675 -0.0061464417 -0.0142955985 0.056904383 -0.064465836 0.07100224 -0.038565494
-0.061359573 0.026777895 -0.013980579 -0.0033582246 0.07563128 0.04162109 -0.08558519 0.017579552
-0.008840143 -0.10320286 -0.0654474 0.02155052 -0.03677369 0.1080643 -0.022625286 -0.037376065
0.04928558 -0.08692308 0.053791244 -0.082822196 -0.06009888 -0.07880283 -0.013965098 -0.0106068095
0.0847924 0.08175545 -0.05124399 -0.022398062 -0.042782232 0.028961135 0.017556144 -0.025231194
0.051141657 -0.06718424 -0.024128718 0.044979405 0.09141508 -0.067018226 0.010380436 0.044878498
-0.035102736 -0.028357195 0.10537704 0.06974049 0.121590436 -0.009987165 0.14146052 0.08096636
0.08167772 0.12627503 0.14779778 0.17687 -0.034426756 0.06759353 0.1726329 0.0028290348
0.20570594 0.06371336 0.008921646 0.09756301 0.06714444 -0.020462632 -0.026602464 -0.052487057
-0.00840301 -0.021473324 0.090321735 0.04620028 0.08161677 -0.027212664 -0.015488974 -0.06804784
-0.0024024707 -0.05310161 0.058439977 0.04065555 0.051372655 -0.031541515 0.013246413 -0.01929197
-0.018387834 0.07887405 0.058681916 0.101215616 0.031690527 -0.05737835 -0.008362512 0.023887273
-0.0069218935 -0.0943034 0.009844437 -0.039876178 -0.08676987 0.06826763 -0.061620798 -0.014456618
0.029507149 -0.053904846 -0.03924256 0.08656856 0.06277957 -0.059063595 0.018413154 0.034775626
0.05722186 0.059954852 -0.07908168 -0.07523837 -0.039157487 -0.068451636 -0.08816327 0.081536055
0.079059996 -0.03246233 -0.055217892 -0.02458152 0.026820512 -0.025597962 -0.051810034 0.042985365
-0.03203065 0.03646341 0.07062198 0.08057466 0.049058985 0.07973946 0.11752103 -0.015393468
-0.049550243 0.10355354 -0.002900049 0.026760966 -0.022429615 -0.059084326 -0.06282188 0.0022662238
-0.094525464 -0.095047615 0.049296916 -0.08631091 -0.07508521 0.07467844 0.053335186 0.02201857
-0.002706978 -0.070280515 -0.03135122 -0.016101645 0.0299609 0.11673017 0.074253894 -0.06513419

enc3_conv.bias f4 [32]
00000000: 731c 84bd c43b b53b fe36 dbbb 1e13 653d
00000010: 5a0e 85bd 785c ad3d ebeb f4bc c36a 38bc
00000020: 882f 91bd f472 a93d 9e49 b33d a585 603c
00000030: 6efc 83bd 9a7e d33d 2574 b13d e95e 523d
00000040: 0dd7 cabb 357c 183d 96c4 a73d 0148 793c
00000050: 709a e8bc 7992 8b3d 297f a33d a34a 81bd
00000060: 01c3 55bd bed5 7dbd 6858 173d ba83 81bd
00000070: 35d1 a0bd 7efc d23d 85bc 7a3d 98df a23c
-0.06450739 0.0055308063 -0.006689905 0.055926435 -0.06496878 0.08464903 -0.02989765 -0.011255923
-0.07089144 0.08273879 0.08754276 0.013703738 -0.064446315 0.10326882 0.08664731 0.051360045
-0.006190187 0.037227828 0.08191793 0.015214921 -0.028393954 0.06815047 0.07983238 -0.06313064
-0.052187923 -0.06197142 0.036949545 -0.06323953 -0.07852403 0.10302065 0.061214942 0.019882008

enc4_conv.weight f4 [64, 32, 3, 3]
00000000: bfe5 8b3c eaf5 593d 6efd e7bc f2d9 85bd
00000010: 8327 d7ba 70d2 163d 5800 2ebd 28a2 8e3c
00000020: 1062 6bbd d5ee b03b ef8a de3b 2821 a23c
00000030: 6fff ae3b 59ce 113c 0b75 8f3d 07ac 0fbd
00000040: e3c8 723b a582 a33d 0d5d d5bc 7c84 bf3c
00000050: 2225 cebc db88 723d 6e93 2f3d 5cd7 323d
00000060: fc88 a53c 8e6e ecbc efba 923d c774 93bd
00000070: 3a0f b43b 0153 91bc b02c 8cbd e339 87bd
00000080: 41bb 96bc 8418 cbbc 9059 afbc 73b6 65bd
00000090: 3815 843b d934 573c 99f8 0a3d 4f58 4c3d
000000a0: b997 34bd 7c2e 62bb 067c 9f3c 802b 0c3d
000000b0: 853f 473d 14dd 82bd d5cb 4ebd 55e9 11bd
000000c0: ea83 85bc 88c8 c0bd 20c6 7dbc 346d 3e3c
000000d0: cdd8 c8ba c930 ef3c 1e17 e93b 9fde 4bbd
000000e0: c7be 70bd a710 e73c b9e9 c03c 41c9 573b
000000f0: b653 683c 3d57 20bd c0ee c73c 29e1 de3c
00000100: 11e9 9e3c ecc2 43bd 10db 003d 5ce5 f83c
00000110: ae8f b7bd f7d1 51bc 019c 98bd f60a e83a
00000120: f667 40bd e754 e23b d8f8 be3d d067 093d
00000130: b217 d03d 5a88 103d 6be6 88bd 458c 293d
00000140: 0c0a a63d c4ad 9538 8c36 963d 8346 e83d
00000150: 1cdb f0bb 123a ddbc cfd6 e03d 6217 d23c
00000160: 5e09 143d 5c2e 153e 70d7 9ebc fb3a 393c
00000170: bbf1 48bd a4c3 56bd d12c 27bd f02f 88bd
00000180: 8ddc d93c ce0a 2cbc d810 a5bd e7a5 20bd
00000190: 724e 3b3d 7597 d8bb 71f2 8abd 288a 58bd
000001a0: 096b 80bd 914c debd 441d 82bd 7ea8 0a3c
000001b0: e673 55bd d3bf 6bbd 1644 6f3c ffd3 ac3c
000001c0: 1c79 463c d41e c73c 5526 3b3d 69f7 d7bc
000001d0: 9cf9 373d 573b ca3b 5793 02bc 0a6a adbd
000001e0: 48ae 57bd 1c3b 923c 99c8 a43b e539 f0bc
000001f0: fa1e 1f3c a06e d1bd 8a64 0e3d 54a3 06bc
00000200: 8e40 89bd 0968 adbc 0bfb ee3c f00b e3bd
00000210: b70a b8bc 6ff0 e5ba 2ce9 b5bd c8de 6a39
00000220: 2e25 9abd 1018 67bd 70ea a93b afe5 693c
00000230: aecf eabb 4b3f 6fbd 2428 56bd 8a63 783c
00000240: 1110 b4bc 0f13 0d3d bacf 4f3d f073 4fbd
00000250: c606 b23c f8a6 1cbb 36b2 35bc 29f1 2fbc
00000260: 99fc 57bd 75f7 14bb ea89 84bd 4d49 a9bd
00000270: adca 23bd abf4 9cbd 45e4 7bbc b234 12bc
00000280: 0ffd 04bd d9ef 5bbd 2478 063d 51c4 82bd
00000290: 4812 0bbc 7827 823c df2c b73c 4933 abbd
000002a0: 2793 91bc 44e0 d13c 8de3 abbd 3f5f 27bd
000002b0: 18a2 90bd 950b 3cbd 0e92 65bc 1202 85bd
000002c0: 88ca c0bd 57bd a5bc 5cd0 a2bd 8d64 d2bd
000002d0: f1f2 6bbd 7bd7 943c 4459 40bd 380a 5abd
000002e0: bc87 f8bc 4a2b 43bd 7004 81bc d4ad 1cbc
000002f0: 9302 f03a 2a95 493d 8e2f 9a3c 7aaa 053d
00000300: 5554 b83b b119 72bd b4de f53b 3f90 573d
00000310: 4a44 f33b 20ab 4abc fc66 72bd 02b4 6dbd
00000320: 17aa 52bd 01d2 a3bd c2c0 aebd 0f2d ea3a
00000330: 7cfa 8ebd 0d20 b73c fdbf afbd 54d1 a0bd
00000340: b9e5 6bbd 0970 553d 8069 a5bd 7487 fb3c
00000350: 935d cf3d ec9e 02bc bab0 30bd 6021 733d
00000360: abe9 88bd 6a5f 55bd a163 5ebc 6517 0dbc
00000370: 309f aebb 1469 86bd b3fe f7bb 4e2d 813c
00000380: 3e58 b0bd b48d da3c 11a0 b23c ddaf dcbc
00000390: e6d8 9bbb a174 39bd 7382 b0bc f307 ffba
000003a0: f740 2cbd 1cde ea3c 9b82 3cbd 8c27 2dbd
000003b0: 7a99 91bd 2462 97bd 994a bc3b c022 8aba
000003c0: d260 54bc 6a6e 99bd 853c 7fb8 6293 babc
000003d0: c4db 47bd 7047 1fbd e61e 03bd babc 4cbd
000003e0: 6800 053d 7e84 49bd fe72 ffbc c3f9 a33c
000003f0: 3a8f f1bc fef1 173d b5ab 18bd 2f49 94bc
0.017077325 0.053213038 -0.028319087 -0.065357104 -0.0016414974 0.036821783 -0.042480797 0.017411307
-0.057466567 0.0053995647 0.0067914645 0.0197912 0.0053405087 0.008899295 0.07004746 -0.035076167
0.0037046007 0.07983903 -0.026045347 0.023378603 -0.02516419 0.059212547 0.04286521 0.043662414
0.02020692 -0.02886131 0.07164561 -0.07200008 0.005494979 -0.017739775 -0.06844461 -0.06602838
-0.018399836 -0.024791963 -0.021405011 -0.0560822 0.00403085 0.013135158 0.033928487 0.049888905
-0.044090007 -0.003451257 0.019468319 0.034221172 0.04864456 -0.063898236 -0.050487358 -0.035622913
-0.016298253 -0.09413248 -0.015489131 0.011622716 -0.0015323401 0.029198067 0.0071133515 -0.049772855
-0.05877569 0.028206183 0.023548948 0.0032926353 0.0141801145 -0.039145697 0.024405837 0.027206974
0.019398244 -0.047793314 0.031458914 0.030382805 -0.089629516 -0.012806407 -0.074516304 0.0017703462
-0.046974145 0.006907094 0.09324807 0.03354627 0.101607695 0.035286285 -0.06684574 0.041393537
0.08107385 7.13724e-05 0.07334623 0.11341574 -0.0073503386 -0.02700523 0.109784715 0.025645915
0.036141746 0.14568466 -0.019389838 0.011305566 -0.049058657 -0.05243267 -0.040814225 -0.06649768
0.026594425 -0.010500623 -0.08059853 -0.039220717 0.04572911 -0.006609852 -0.06784523 -0.05286613
-0.06270415 -0.10854448 -0.06353238 0.008463023 -0.052112482 -0.057555985 0.014603635 0.021097181
0.012113836 0.024306692 0.045690853 -0.026363092 0.04491578 0.0061716246 -0.007969699 -0.08467491
-0.052656442 0.017850451 0.005028796 -0.029324481 0.009711975 -0.10226178 0.03476385 -0.008217651
-0.06701766 -0.021167772 0.029172441 -0.11086261 -0.022466047 -0.0017542968 -0.08882365 0.00022398971
-0.07526623 -0.056419432 0.005185418 0.014275952 -0.0071658706 -0.05840997 -0.052284375 0.015160451
-0.021980317 0.034442004 0.050735213 -0.050647676 0.021731745 -0.0023903232 -0.011089852 -0.010738649
-0.05273113 -0.0022730504 -0.064716175 -0.08265934 -0.03998821 -0.07663854 -0.015374248 -0.008923696
-0.032467898 -0.053695533 0.03282942 -0.06385101 -0.008488245 0.01588796 0.022360263 -0.08359391
-0.017770363 0.025619633 -0.08393011 -0.040862318 -0.07062167 -0.045909483 -0.014011873 -0.064945355
-0.0941363 -0.020231886 -0.07949898 -0.10273085 -0.057604734 0.018169155 -0.04696013 -0.0532324
-0.03033816 -0.047648706 -0.015749186 -0.009562928 0.0018311314 0.04921452 0.018821504 0.032633282
0.0056252875 -0.059106532 0.007503355 0.0526278 0.007423912 -0.012369901 -0.059180245 -0.058032997
-0.05143174 -0.079990394 -0.085328594 0.0017866212 -0.0698137 0.02235415 -0.08581541 -0.07852426
-0.057592127 0.0521088 -0.08076763 0.030704238 0.1012527 -0.00797246 -0.04313729 0.059358
-0.06685194 -0.052092947 -0.013573558 -0.008611535 -0.005329035 -0.06563011 -0.0075682043 0.015768673
-0.08610581 0.026678897 0.021804841 -0.026939327 -0.004756081 -0.04527724 -0.021546578 -0.0019457325
-0.042054143 0.028670363 -0.046022993 -0.042274043 -0.071093515 -0.07391766 0.0057461974 -0.0010538921
-0.012962537 -0.07491763 -6.08531e-05 -0.022775356 -0.04879357 -0.038886487 -0.03201189 -0.04998467
0.03247109 -0.04919862 -0.031182762 0.020016557 -0.029487241 0.037096016 -0.037273128 -0.018101303

enc4_conv.bias f4 [64]
00000000: 86c0 7d3c 8a66 67bd 00f3 a13c e0cc 5b3c
00000010: 58df 493d 4efe 9b3d 39d7 be3c dea6 853d
00000020: 5bff bcbc d400 fdbc c190 74bd 7783 a4bc
00000030: f063 9fbb bc3d 363d 0beb b33c c1ea 133d
00000040: fedb d2bc bb28 20bd 1ca4 a13d 35be b13b
00000050: 82f0 113d 35cb 20bd 485b 39bd 34f8 863d
00000060: 2229 0cbc 0f7a 50bc 5c59 69bb 2a14 f13c
00000070: 6f52 6fbd e382 29bb cfa0 b73d 58a5 873d
00000080: 0647 8b3d b11f 823d 39f3 0d3c 945c 373d
00000090: 2ab7 043c 84fa 973d d797 db3c 272b b33b
000000a0: 28f0 383d 6c42 2d3d 6080 94bb 5b0d 953d
000000b0: ecfd a23d d1f3 bd3c 9e86 5fbd 2f9c 963d
000000c0: 2c38 eebc 2a5c 84bd cfcd 233d d6f5 133d
000000d0: 57c5 1a3b f144 7a3d b2c5 54bd 6502 933d
000000e0: 6e13 9ebc 5845 b43d ef4d db3c bd86 e7bb
000000f0: 3210 a53d d752 813d 7b31 b7bc 6179 653d
0.015487796 -0.056494273 0.019769192 0.013415545 0.049285263 0.07616864 0.023295986 0.06525968
-0.023070982 -0.030884184 -0.05970836 -0.020082219 -0.0048642084 0.04449247 0.021962663 0.03611255
-0.025739666 -0.039101344 0.078926295 0.005424286 0.035629757 -0.039256293 -0.04525307 0.0659031
-0.008554729 -0.012724414 -0.003560624 0.02942856 -0.058428224 -0.0025865368 0.08966219 0.06623334
0.06800656 0.06353701 0.008663946 0.044766024 0.00810031 0.07420829 0.026805801 0.0054677906
0.045150906 0.042299673 -0.004531905 0.07277938 0.07958588 0.02318755 -0.05457174 0.073540084
-0.02907952 -0.064628914 0.039991196 0.03612312 0.002361616 0.061100904 -0.05194635 0.07178191
-0.019296374 0.08802289 0.02677056 -0.0070656226 0.0805973 0.063146286 -0.022362461 0.05602396

enc5_conv.weight f4 [128, 64, 3, 3]
00000000: 76fc 003d c961 3f3c c0a2 7b3c 7e69 b73c
00000010: 961b 29bd e0bd 9aba 05b7 0f3c ea86 e23c
00000020: 1b7b abbc d439 933c 6f16 cebc 66b7 3fbb
00000030: 4c59 df3c 8d7b dabc fc2a 37bd 7a19 d5bc
00000040: 3809 6bb9 f479 3cbb db39 ca3a fa83 88bc
00000050: ac8b d33c 290c 183c 77e0 21bd 1dd4 0c3b
00000060: 2226 33bd 481f e1bc 9d5e 24b8 b3f6 0e3d
00000070: 8e08 07bd 7823 2f3c 3518 fa3c d836 af3c
00000080: 98e8 18bd 1ab6 85bc 02b6 8b3b 0b77 fb3c
00000090: 99e4 b83c 5317 12bd e641 39bd aa44 0abd
000000a0: 1fdc 30bd 56a2 06bd 7ba0 9c3c 1897 1abd
000000b0: 73a9 143d 4ce7 31bd 4d98 25bd 9a29 113d
000000c0: d741 b93c 5d1c c0bc be4d 053d 5e41 8fbc
000000d0: 4fbc 113d a646 32bd 3e0e a7bb 1391 043c
000000e0: 7ce5 19bd 7f55 9d3b 7cc2 84bc b1c8 cabc
000000f0: 60c9 733b 3a3f da3c 1c22 07bc 4516 03bc
00000100: 349c 123d 839a e1bc e244 1a3c 407d 643c
00000110: 4fd8 8ebb 8659 903c 349e aabc c1e5 3abd
00000120: d092 93bc 276f bcbc 8c4e 4f3c 26ca ea3c
00000130: 0c63 fbbb 453d f7ba 65f4 fb3b 9e35 fe3c
00000140: 28bb e6bc f3fb ef3c a89d a93a 4d8b 77bc
00000150: d674 14bc 758d 8cbc 8e84 b23c 8a08 d43c
00000160: ee56 aa3b ba9b 2abd 3c18 0c3c a482 bbbc
00000170: 81ec fc3c 61de e1bc 4d27 533c 47d3 02bb
00000180: b712 0b3b 30f6 c83a 136e fbbc b184 9f3b
00000190: a4cf 4a3c 88bd d7bc 8b15 42bd c1f1 71bc
000001a0: fc07 f1bc 88c8 063d 47d2 3d3c 1eef b5bb
000001b0: 451e 41bd 8f8e b9bc 3f1e 1e3c 0616 e73a
000001c0: 322b a9bc 7a74 c5bc aadb 2cbd c99c d63c
000001d0: 22aa a53c acfc 33bd b705 f1bc 4213 7e3c
000001e0: 6aa6 26bc 5d15 703c 51ed 38bc 0fb8 063d
000001f0: b991 8fbb fa1c e73b dd7e 11bb 3c7e 0f3c
00000200: dd12 f33b afc8 80bc 7de0 b73b 266e 633c
00000210: 86a8 22bd 1449 fdbb 610e 37bc 24d5 03bd
00000220: d7d8 6d3b 1eed d33c 35a9 cdbb 87be 21bd
00000230: 57e0 de3c 8b0c 8cbc c8f1 d93c ef16 b7b9
00000240: 0a65 02bd e0ce 02bc 6c74 6c3c 8025 3fbc
00000250: 513d 253d 2adf df3c bb8e b5bc 767b bf3c
00000260: 937e b9bc a2c1 6aba 9edb 38bd 1678 2bbd
00000270: b1cb 38bd 75ba fb3c fdb6 06bd 6388 8d3b
00000280: 98d6 0d3d e123 2f3c e43a bfbc 04ad 20bc
00000290: 644f 5d3c 50eb b63b 65f1 0a3c c923 23bc
000002a0: 2c6f 5a3b a70c 9f3c c771 c0ba aec7 ba3c
000002b0: 38ff b0bc 0db7 17bd 2bb1 d03c 11d9 ecbb
000002c0: babb 82bb dac1 63bc c64f 0fbd eb73 1f3c
000002d0: d128 fcbc e7c0 973c abd3 37bd 2057 d5ba
000002e0: 0253 e33a 5d18 103d 1934 2c3c f636 fa3c
000002f0: d961 5dbc 8ef9 cf3c e23a 8fbb 6a26 283c
00000300: 8e9a 323c d45d 1dbd e144 063c d9ed 23bd
00000310: d8a0 353c 6364 09bd 79c1 8fbc 5dd2 0bbd
00000320: 736f cf3c 9701 1fbd 7fb6 073b 6613 aa3c
00000330: ea41 d13b 6dab dd3c e574 ef3c cd22 75bc
00000340: 20f1 333c dc07 023d 6d31 06bd e776 023b
00000350: 780f e53c b0a2 bebb 1c08 5b3c 57a2 1cbd
00000360: caa3 16bd fa12 f43c 9b9d 09bd f8b7 d43b
00000370: a889 f5bb e658 d13c 1615 bcbc c84a fa3b
00000380: e825 a13b 41df 233d a778 283d 7eff 8ebc
00000390: 4265 be3c 55bb 053d 3cd8 02bd 6b85 abbc
000003a0: 06d5 b63c 89b3 253d c1ae b3bc acf8 3cba
000003b0: 5bdf 9abc e393 d2bc 462e d3bc 29dd 1abc
000003c0: 7156 fc3c 93b9 ebba 95e0 c4bc c5b4 413c
000003d0: 69a8 15bd 3076 c43c 2cc1 fe3c dad2 b73b
000003e0: 9301 0cbc 9380 e53c 3fa0 55bc 1038 33bd
000003f0: c56b 11bc d4d8 b6bc c085 c5bc 1c51 eabc
0.031490766 0.011681029 0.015358627 0.02238917 -0.041286074 -0.0011805855 0.008771663 0.027652223
-0.020932725 0.01797191 -0.025157182 -0.00292536 0.02726426 -0.026670242 -0.044718727 -0.026013125
-0.0002241478 -0.0028759213 0.0015428619 -0.016664494 0.025823437 0.009280243 -0.039520707 0.0021488734
-0.04373754 -0.027480736 -3.9188762e-05 0.03490324 -0.032967143 0.010689609 0.030529121 0.021388456
-0.037331194 -0.016322184 0.0042636404 0.030696413 0.022569941 -0.035666775 -0.04522886 -0.03375689
-0.043178674 -0.03286966 0.019119492 -0.03774175 0.036294412 -0.043433473 -0.04042845 0.035440065
0.022614403 -0.023451025 0.032544844 -0.017487224 0.035579976 -0.043524407 -0.0050981333 0.008091229
-0.03757237 0.0048014517 -0.016206019 -0.0247539 0.0037198886 0.026641477 -0.008247878 -0.008000915
0.0357935 -0.027539497 0.009415837 0.013945878 -0.004359282 0.017620813 -0.02082739 -0.045629267
-0.018014342 -0.02300222 0.012653004 0.028660845 -0.0076717194 -0.0018862864 0.007689046 0.031031426
-0.028165415 0.029294943 0.0012940662 -0.0151088955 -0.009061059 -0.017157296 0.021791723 0.025882978
0.005198351 -0.04165242 0.0085507 -0.022889443 0.030874493 -0.027571859 0.012887788 -0.0019962357
0.0021220872 0.0015332159 -0.030692136 0.004868113 0.012378607 -0.026335493 -0.047383826 -0.014767111
-0.029422753 0.032906085 0.011585779 -0.0055521866 -0.047148008 -0.022650985 0.009650766 0.0017630465
-0.02065048 -0.024103392 -0.042201675 0.026197808 0.020222727 -0.04394214 -0.02942167 0.015507521
-0.010171512 0.014653531 -0.011287049 0.032890376 -0.004381385 0.007053015 -0.002220086 0.008758124
0.00741802 -0.015720693 0.005611478 0.013881242 -0.039711498 -0.007729659 -0.011172862 -0.03218569
0.0036292577 0.025869902 -0.0062762746 -0.03948834 0.027206583 -0.017095825 0.026604548 -0.00034921567
-0.03183464 -0.007983893 0.014432054 -0.011666656 0.04034168 0.027328093 -0.022162786 0.0233743
-0.022643363 -0.0008955245 -0.04513132 -0.04186257 -0.04511613 0.030728558 -0.032889355 0.004319237
0.03462848 0.010689707 -0.02334351 -0.009806875 0.013507698 0.0055822507 0.0084804045 -0.009957262
0.0033330424 0.019415213 -0.0014682346 0.022800293 -0.021606073 -0.037039805 0.025475105 -0.007228025
-0.003989664 -0.013901198 -0.034988187 0.009732227 -0.030781182 0.0185246 -0.044879597 -0.0016276576
0.0017343464 0.035179485 0.010510468 0.030543786 -0.013512098 0.025387552 -0.004371033 0.010263065
0.0109011065 -0.03841956 0.008195133 -0.04002175 0.011085711 -0.033543 -0.01754831 -0.034136165
0.025321698 -0.038819876 0.0020708141 0.020761203 0.0063860314 0.027059281 0.029230544 -0.01496191
0.010982782 0.031745777 -0.03276198 0.0019907297 0.027961478 -0.0058177337 0.013368633 -0.038240757
-0.036777295 0.029794205 -0.03359757 0.0064916573 -0.0074932165 0.025555085 -0.022959273 0.007638309
0.004917849 0.040007833 0.041130688 -0.017455813 0.023241643 0.032649357 -0.0319445 -0.020937642
0.022318374 0.04045442 -0.021933915 -0.0007208686 -0.018905332 -0.025705284 -0.0257789 -0.009452143
0.030802937 -0.0017984383 -0.02403287 0.011822884 -0.03653756 0.023982137 0.03109797 0.0056098523
-0.008545297 0.02801541 -0.013038694 -0.043754637 -0.008875792 -0.022320189 -0.024111629 -0.02860313

enc5_conv.bias f4 [128]
00000000: 83dd a2bc 1813 493d 32cb 5bbd 988b 023d
00000010: 5342 1b3c b9cf 6e3c 277d c63c df48 2abd
00000020: 9003 8f3c 669d 823d 892e 13bd 3625 1dbd
00000030: 7eba 3abd ad3f 783d 81cb 29bd ee92 e83c
00000040: c6c2 6f3d 96ab 1fbd 410e c7bc fe16 29ba
00000050: 7799 253d 781b 563d df98 3a3c 4e25 e23c
00000060: e401 933d d945 c5bc d274 7c3d 9b89 46bd
00000070: 2b2e cdbb e83d 123b 2ea8 83bc 587c 52bd
00000080: d1a1 75bd 2480 1fbd f522 a43d 4b17 b03c
00000090: 3bf2 32bd 4e0c 483c d217 f5ba 4d53 5abc
000000a0: 2289 a6bc d1ea 413d db71 973d d3a9 8f3d
000000b0: 4d4a 563d 556f f2bc 69f5 7f3d 7f11 5bbb
000000c0: d279 a4bc cfba e73c d235 ea3c 38f1 a03c
000000d0: d282 2e3d a275 3bbc a2aa 37bc a60e 133d
000000e0: baae 493d 92a8 993d 48ed 683c 52d3 20bb
000000f0: 5c87 943d e9ec 063d aff8 993d 1c10 483c
00000100: b437 0abd 24aa b9bc 127a 0bbd 7ea3 8b3d
00000110: c310 4fbc bb90 9f3d 867f 243d af94 83bd
00000120: 599c 2ebd 52db 943d d307 a33c 656e b53c
00000130: a5a6 083d b96b 963d 041e a7bc f105 2ebd
00000140: c740 3c3d 9b8a 99bb fb33 18bd 449d 573c
00000150: eee9 ca3c 5d89 413d c8ac 813d a0f9 d8bb
00000160: 143c 46bc b152 453d 8ccd 903d 291e ffbc
00000170: 10ba 3ebd b4bf b6bc de07 993d c25a bdbc
00000180: 50b8 493d 228f fbbc 96de 24bd 75af a03c
00000190: 701e 4ebd c55f 94bc 8423 b33c a610 aabc
000001a0: d5c1 84bb 6e3e 903d 5332 1ebd dd00 903c
000001b0: 6bb7 28bd a648 313d 075f 4abd 9a04 d93a
000001c0: 19b7 9dbc 5a70 adbc d741 5e3d 1125 a5bc
000001d0: 8f22 f4bc 92e7 113d 23ca 4b3d e456 ac3c
000001e0: 69b7 b3bc 927a 833c c632 1dbd 5f20 0b3d
000001f0: 53ed 0ebd 5248 1e3d 63a4 10bd bcf5 703d
-0.019881016 0.049090475 -0.05366058 0.03187141 0.009476262 0.014575892 0.0242296 -0.0415734
0.017457753 0.063776776 -0.03593305 -0.038365565 -0.04558801 0.0606076 -0.041453842 0.028390374
0.05853536 -0.038981996 -0.024298789 -0.00064502645 0.04042956 0.05227229 0.011388986 0.027605679
0.07178095 -0.024081158 0.061634846 -0.048471075 -0.006261607 0.002231473 -0.016071405 -0.051388115
-0.059968773 -0.038940564 0.0801448 0.021495482 -0.04368804 0.012209965 -0.0018699116 -0.0133255245
-0.020329062 0.04734308 0.07394763 0.07014813 0.052316952 -0.029594103 0.0624899 -0.0033427177
-0.02007762 0.02828732 0.028590117 0.019646272 0.04260523 -0.01144162 -0.011210116 0.03590264
0.049238898 0.07502855 0.0142167285 -0.002454002 0.0725238 0.03294078 0.07518136 0.012210872
-0.03374453 -0.022664137 -0.034051962 0.06818293 -0.012638274 0.07791277 0.04016068 -0.064248435
-0.042629573 0.072683945 0.019901192 0.022147367 0.03336205 0.07344765 -0.020400055 -0.042486135
0.045960214 -0.0046857125 -0.037158947 0.013160054 0.02476975 0.04725014 0.063317835 -0.0066215545
-0.012099285 0.048174564 0.07070455 -0.031142311 -0.04656416 -0.022308208 0.07472204 -0.023114566
0.04924804 -0.0307079 -0.040251337 0.019614914 -0.050321996 -0.018112073 0.021867521 -0.020759892
-0.004051427 0.070431575 -0.03862221 0.017578537 -0.041190546 0.043282174 -0.04940703 0.0016557158
-0.019252347 -0.021171737 0.05426201 -0.020159276 -0.029801635 0.035621233 0.04975332 0.021037526
-0.021938043 0.016049657 -0.0383785 0.03396642 -0.0348943 0.03864319 -0.03531302 0.0588281

dec5_up.weight f4 [128, 64, 2, 2]
00000000: 18bb b2bc a47e 9abb 6137 4abd bf05 0ebd
00000010: 882a 1ebd 5d87 2c3c 172e 253b 6b80 783b
00000020: 673b 15bd b0f8 23bd 3688 7cbd 9c01 163c
00000030: b13d 5f3d 0c21 37bd 01c6 21bd 6492 8b3c
00000040: d9e4 113c 7bd5 e23c a25c fcbc 9af7 4c3d
00000050: 8324 2c3c 9c90 cc3b ddca 363d f9e8 5bbd
00000060: 45b5 0f3d feb3 36bd e063 87bd c09b 39bc
00000070: aaf8 fa3c adcd 243d 8166 033b 1323 683c
00000080: 5f90 213d be7c 173c f143 2e3d 71b0 d13b
00000090: aac5 8f3c 8144 97bc bf2a f13c 26c5 1f3d
000000a0: e831 5fbd 8c17 18bd 442f 763c fb7b 533c
000000b0: dc3b 4ebd f83e 1dbd 9efd 2bbd 47c1 ebbc
000000c0: 8de2 a43c 9f19 1fbd 74c5 de3c 479e 80bc
000000d0: 9d08 2e3d 37a4 d5bc 3309 76bd 00ab 353d
000000e0: 8e42 83bd aa4c c53c 407c 273d 8b14 16bd
000000f0: fa3a 283d 1d80 533b 2dd6 74bd 297a 48bd
00000100: 9a20 713b d809 413c 1e0f 2d3d 3bf5 6dbd
00000110: b9f2 5bbd 7bb3 02bd 1589 393d 0961 3abd
00000120: 9e6a b83c dfee 593d df83 52bc df7b 493d
00000130: 6455 783d 2c8d 653c ca94 983c 0ec3 90bc
00000140: b5d8 bdbc fb77 c7bc 3081 873d f2c7 443d
00000150: 12db 28bd 484a c43b d516 a83c 1b86 30bd
00000160: 54fb 783d 228f 38bb 4431 413d b167 13bd
00000170: 4130 ad3b 1b62 f93c 189e 6fbd 480d 8fbc
00000180: 563b bcbc 6244 c239 8615 87bd 016c 3e3b
00000190: 92a4 7f3a 8341 77bc ae50 9f3b 0aba 8ebc
000001a0: 8c47 063d a519 25bd 3fab 163a 8ffa b23c
000001b0: e6bd 3c3d 5d25 9dbc e759 39bd 4ecc a8bc
000001c0: e0c3 00bd a88b d93b 0f5a 8b3d 279c 46bb
000001d0: cc77 6e3d 464c 583d e309 5a3d 27e8 38bd
000001e0: a68a e0bc 4a15 ebbc b1d1 0bbd e512 bfbc
000001f0: 6827 333d 4994 57bd b6a1 36bd 1760 88bd
00000200: 1bc6 77bd 0082 14bd cfc5 15bc 4589 593d
00000210: d2b9 3f3c dd84 203a 87b8 363d aa97 f6bc
00000220: 9e57 2a3d 2583 c8bc 46d7 413d 858a e43c
00000230: 92f1 78bd e6ed 393d 8b0d babc e7e3 653d
00000240: 9711 40bd 58b0 f83c 00fd 53bd dcfe 3dbd
00000250: 98d9 5fbd 82fc f5bc 34e0 7f3b 1f96 753d
00000260: 5bc5 273c bc3c 18b9 c2dd e03b 63e7 f9bc
00000270: d452 2bbd 40cd 1fbc fe06 353c 00c0 2d3d
00000280: cefa 60bb ad5c 403d 9331 26bd 23d6 15bc
00000290: 50e7 803b dc9e 443d e494 cabc 1566 e23c
000002a0: 921e 543d b10a 33bd a053 4d3d 94bc 80bd
000002b0: 5947 323d 4836 293c 36bc 3f3d f361 03bd
000002c0: b72c 703d 860d 12bd e640 2abc e041 863d
000002d0: 0611 533d 25f3 a53c dfe9 743b 7e22 4f3d
000002e0: 60c4 13bc bcf1 fabb ab57 cfbb 7330 04bd
000002f0: d1fd 69bd cc5e 66bd 9d74 0b3d 59a4 7ebd
00000300: 1a82 803c d5fa 3fbd 2930 c8bc 25ec a73b
00000310: 0965 f43c ee6e a2bc 1e56 dc3c 581c 39bc
00000320: 6a30 53bd 29c4 113d da22 fcbc 48f8 dc3c
00000330: 68c6 5bbd 1989 c63b 7a02 3e3d 0fc8 c13c
00000340: ea6b dd3b 053d 50bd 026f c6bc 975b 163d
00000350: a092 2fbd 593e 8ebc f5e7 f83c 47a4 60bd
00000360: a8ba 443c 97e6 8fbc 1a50 0a3d b466 3e3c
00000370: 76dd 47bb b289 46bd 1c7f 1ebd 1075 5abd
00000380: 3d51 a43c 611d a1bc bb13 23bd 8abf 493d
00000390: 16c1 53bd 66a6 e435 3541 b3ba dccc 0dbd
000003a0: 544f a6bc 26d5 84bc 2618 663d 8ace 1f3b
000003b0: 9ad2 3dbd 47a1 81bc a259 d33c 7b22 b93c
000003c0: 888e c13b 0b23 153c fca3 00bc a6b5 533d
000003d0: 246c db3c b819 61bd 3ec9 08bd 66e5 fdbc
000003e0: 6aea eabc bd31 12bd cc53 7cbc 1ac5 2ebd
000003f0: cccd 7a3b c30c b13c 8121 933b a815 0a3d
-0.021817729 -0.004714804 -0.04936922 -0.03467345 -0.03861478 0.01053032 0.0025204474 0.003791834
-0.036433604 -0.04003209 -0.06165334 0.009155657 0.054502193 -0.04470925 -0.039495472 0.017037578
0.008904659 0.027689686 -0.03080589 0.05004082 0.010506752 0.0062428247 0.04462706 -0.053688977
0.03508498 -0.044605248 -0.066108465 -0.011328638 0.03063615 0.04023521 0.002005011 0.014168519
0.039444324 0.009246049 0.042545263 0.0063992073 0.017550308 -0.018465282 0.029439328 0.039006375
-0.054490954 -0.03713183 0.015025917 0.012907977 -0.050350055 -0.03839013 -0.041989915 -0.028778685
0.02012756 -0.038842794 0.027193762 -0.015700473 0.042488683 -0.02607928 -0.060067367 0.04435253
-0.06409179 0.024084408 0.04088998 -0.036640685 0.04107187 0.0032272406 -0.059774566 -0.048944626
0.0036793114 0.011782132 0.042250745 -0.058095198 -0.053698275 -0.031909447 0.045296747 -0.045502696
0.022511777 0.05320632 -0.012848823 0.0491904 0.06062831 0.014010709 0.018625636 -0.017671134
-0.023174623 -0.024349203 0.066164374 0.048042245 -0.041224547 0.0059903003 0.0205187 -0.043096643
0.06078656 -0.0028161486 0.047166124 -0.03598756 0.0052852933 0.030442288 -0.05850038 -0.017462388
-0.022977512 0.00037053513 -0.06595902 0.0029056075 0.0009752001 -0.015091303 0.0048619127 -0.017422695
0.032783076 -0.04030766 0.00057475636 0.021847991 0.04607954 -0.019182855 -0.045251753 -0.020605233
-0.0314368 0.006638963 0.06804287 -0.0030305476 0.058219716 0.052807115 0.053232085 -0.045143273
-0.027409863 -0.028696675 -0.034135524 -0.02332444 0.043738753 -0.05263165 -0.044587813 -0.06658953
-0.060491662 -0.03625679 -0.0091413995 0.053109426 0.011702018 0.0006123314 0.044609573 -0.030101616
0.041587465 -0.024476597 0.04732444 0.027898083 -0.060777254 0.045392893 -0.022711536 0.056125548
-0.046891775 0.030357525 -0.05175495 -0.04638563 -0.054650873 -0.030027632 0.0039043548 0.05995762
0.010239924 -0.00014518475 0.006862373 -0.030505842 -0.041827038 -0.009753525 0.01104903 0.042419434
-0.0034329179 0.046963383 -0.04057462 -0.009145292 0.0039338246 0.048003063 -0.0247292 0.027636567
0.051786967 -0.043711368 0.05012858 -0.062859684 0.043525074 0.010327883 0.04681035 -0.032075834
0.058636393 -0.03565743 -0.01039145 0.065555334 0.051529907 0.020257542 0.0037370843 0.050570004
-0.009018987 -0.0076582115 -0.0063275895 -0.032272767 -0.057126824 -0.05624275 0.034046758 -0.062168453
0.015687037 -0.04687007 -0.024437027 0.005124586 0.029833334 -0.019828286 0.026896533 -0.011298262
-0.051559843 0.035587464 -0.030778337 0.026973858 -0.05365601 0.006058824 0.04638908 0.023654966
0.006757249 -0.050839443 -0.024222855 0.03670844 -0.042864442 -0.017363714 0.030384043 -0.054844167
0.012007393 -0.017566008 0.033767797 0.011621166 -0.0030496991 -0.04847116 -0.03869544 -0.053334296
0.020058269 -0.01966733 -0.03981374 0.04925493 -0.051697813 1.7035752e-06 -0.001367605 -0.034619197
-0.020301498 -0.016214918 0.056175373 0.0024384581 -0.046343423 -0.015823973 0.025799576 0.02259945
0.0059068836 0.009102593 -0.007851597 0.051686905 0.026784964 -0.054956168 -0.033395045 -0.030993175
-0.02867623 -0.035691965 -0.015400838 -0.04266844 0.0038269637 0.02161253 0.004490078 0.03371206

dec5_up.bias f4 [64]
00000000: 9c4d 783d 2dbe 3abd 5612 563d 9865 f7bc
00000010: a3b3 1cbd d2d6 51bc 4eb6 d23c 7c16 85bd
00000020: d094 9ebd c668 873d 4bb6 28bd 96df 5bbd
00000030: 65ed 9a3d 45d8 1b3d ec0d 453d 2041 193d
00000040: 14de a13d 608c 283d b870 6d3d 76e9 6abd
00000050: 4a6c 1abd 9827 37bd 5724 a9bd 6391 543c
00000060: 2578 9b3d 5184 9cbd 7fbb 703d 126a cabb
00000070: 3e2f 12bd c1a1 69bd 4f1f 963d 2ff6 8b3d
00000080: d1dc b53d 58e5 48bd 9265 693d 3a15 7d3d
00000090: a821 7abd 29b9 a1bd f768 0a3d 5cc4 013d
000000a0: 4467 febc 92ae 48bd 9127 b13d dc1a 453d
000000b0: 7c6c 8abd 4530 abbd 2905 823d a237 083d
000000c0: 5d14 7abd 50b5 913d a8ff 25bd 6f4a a1bd
000000d0: 1a17 ab3d a455 3c3d ac0a 653d f21f 90bd
000000e0: ed10 9c3d 39e0 8ebc 7abb f4bc 86de 633d
000000f0: 497b c2bc 4191 cfbc 32e9 23bd bd98 68bd
0.06062089 -0.045591522 0.05226358 -0.03019981 -0.038257252 -0.012807565 0.025721695 -0.06498429
-0.077432275 0.06611781 -0.041189473 -0.053680025 0.07564811 0.038048048 0.04810898 0.037415624
0.07903686 0.041149497 0.057968825 -0.057351552 -0.03770093 -0.044715494 -0.082588844 0.012974116
0.07591275 -0.07642425 0.05877256 -0.0061771953 -0.035689585 -0.057039026 0.073301904 0.06834065
0.08880008 -0.049046844 0.05698163 0.06178782 -0.061067253 -0.078966446 0.03379151 0.031681404
-0.0310551 -0.04899461 0.08650125 0.04812132 -0.06758973 -0.08358816 0.063486405 0.03325618
-0.061054576 0.07114661 -0.040527016 -0.07875525 0.08354016 0.04598011 0.05591838 -0.07037343
0.07620416 -0.017440902 -0.029874552 0.055632137 -0.023740428 -0.025337817 -0.040017314 -0.056786288

dec5_conv.weight f4 [64, 128, 3, 3]
00000000: fb3a 7dbc ed92 513c 9621 b5bc 08fd 8fbc
00000010: a2ef 89bc 86d7 f1bc 4670 b83b ea85 e13c
00000020: cf3e 953c 5146 ab3c cd95 1e3d 19e1 2cbc
00000030: ae82 c93a 6816 27bc 1586 be3b c256 b43c
00000040: 258d 8d3c 184c 8e3c 6349 45bc be5d 513b
00000050: d1f2 a7bc 890b 5a3c 4525 56bc 7132 523b
00000060: 7a61 c239 259e f13b 8f83 51bc b85e d33c
00000070: de8a 09bb 9805 95bc 852b 3cbc 4d96 93bc
00000080: 53a9 bbbc c680 a73c fc57 95bc cfd9 f8bc
00000090: 3a83 253b 60cc 753c 3c68 c53c e0cf 22ba
000000a0: 5037 1b3d d005 1c3d 0100 b7bb c4e8 453c
000000b0: ac98 afbc 1a1b c8bb cb35 14bd 969c 73bc
000000c0: ede9 50bd 0a0d 3ebb 955c e5bc 62b7 b03c
000000d0: a90e a9bc 6f53 ea3c 1ebe 843c 367d 853c
000000e0: 1c3b 103c b2c7 24bd 0f87 ccbc f23d cbbc
000000f0: 9401 52bc e61a 553b c6e9 8abc f82c 2cbb
00000100: 8c25 c2bb a8ec 323d ebf6 483c a963 2e3c
00000110: f5cd 13bc 7c97 923c 1a07 54bc 4cef 0dbc
00000120: 8e7b fab9 6b1d f2bb ae1b e13a 6a8b 683c
00000130: ed1d dc3b b83d 37bb d5ef f1bb 67a2 8bbc
00000140: 6810 153b 4d24 1abd d2e5 ee3a c4c0 91bc
00000150: 5af1 b1bc b94e 22bd 7cf3 3abc 7057 4cbb
00000160: af50 d8bb 4d18 bfbc 548a 113c b5e5 813c
00000170: d5a4 293d b7f7 ec3b 9fc6 0cbc 8ffb fd3c
00000180: 1522 283c f3ca b13c bda1 22bc eaf2 e53c
00000190: e878 cebb 6510 cb3b aef9 a53c 2c22 88bc
000001a0: 8f59 83bc 8ce0 ad3c ae97 6bbb c226 9d3c
000001b0: 109c 61bb d49f c1bc 9f88 1cbd bc14 8bbb
000001c0: f64b 713c 34b6 4e3c dd6b 7e3b c5d6 373c
000001d0: 3ce7 d7bc b4cf d3bc ee79 35bd f427 2abd
000001e0: 3f59 c33c 17a8 eebc 3a70 d9bb d5d4 d3bc
000001f0: 75f0 59bc e115 31bc 8bd7 8dbc 2cb6 783b
00000200: 090d c43b c8b1 bbbc fdf3 35bd 47e0 05bc
00000210: 79c4 a93c 6e33 adbc 6470 d53c e22f 87bc
00000220: 70f5 47bd 00e6 83bb 5c26 5fbc a4cb 963b
00000230: 68e9 0dbd d222 bf3b bd1d 89bc a147 0f3c
00000240: 7594 27bd 58f0 cbbc a321 cdbc 2073 adbc
00000250: 0910 eebc e8dd 9b3c 3d67 e9bb 2deb bcbc
00000260: 5135 a6bc 22ce 743c c080 ed3a 0107 01bc
00000270: 26df e93b 4ca5 eebc b18b 2bbd d8ba 733c
00000280: 04f4 753b 004d 543c bbd6 623c d432 84bb
00000290: 8b68 8b3b 57d9 bb3c 56a2 9dbb 7ff9 cdbc
000002a0: 3fd1 f3bb e13b 043d 232b 11bc 7c8b d63c
000002b0: d5d8 5b3d 2bd8 353d f01f 1b3d 68bb 26ba
000002c0: 4d18 883c 1b25 533c 36b8 113d 8ce8 f4b8
000002d0: e29b 5ab9 9020 abbb 9c64 223d ea08 2dbb
000002e0: c43a d63c 0252 2e3c 806c 2dbc 168d fc3c
000002f0: 7c98 bc3c ed53 183c a0a1 0f3b 49f8 333a
00000300: b342 e13c cc57 873b aac5 153d 9430 1f3c
00000310: 194e 4b3c 4656 3d3c be07 5bbb 2947 55bc
00000320: 559e 2a3d 5c66 fd3b 4af5 87bb 0102 7ebc
00000330: 8e25 6f3c a5e6 1ebb 46f5 c6bc f515 7cbc
00000340: 2f8f 94bb b9f1 3fbb 2051 bfbb 056c 8d3b
00000350: c9b7 edbb 8645 903c cff3 0b3d 0483 943c
00000360: 6d29 1cbd 1327 bcbb c7c7 bebc 4d55 87bc
00000370: fbec d93b 024e 4a3c 3361 24bc a3b6 cebc
00000380: cfa3 03bc 7766 53bc 55c3 b93c a4dd ae3b
00000390: 7f22 41bb 21cf 0c3d 07d7 b13c 7fc8 ccbc
000003a0: f8ab abbb 8865 633c 2bcc 743c 44c4 d23b
000003b0: 5dae 88bc 3e30 6bbb aabb c8bc dd6f 28bd
000003c0: ec3b 593b 6947 6abc 8298 8a3c 00ef 7e3b
000003d0: d856 17bc e71b 143d a41c f33b 1a4f 9e3b
000003e0: 9f9c d33b 6a00 c23b fc52 15bd 4314 54bc
000003f0: a445 293d eae2 da3c e667 1a3d bff5 463b
-0.015455957 0.0127913775 -0.022110742 -0.01757671 -0.016837899 -0.029521715 0.0056286184 0.027529676
0.018218426 0.020907553 0.03871708 -0.010551714 0.0015374029 -0.010198213 0.0058143237 0.022014026
0.017279217 0.017370269 -0.012041423 0.0031946744 -0.020501526 0.013308414 -0.013070409 0.0032073522
0.0003707519 0.0073735886 -0.012787714 0.025802001 -0.0020987312 -0.018191144 -0.011484985 -0.018016005
-0.022907889 0.020447146 -0.01823043 -0.030377297 0.002525522 0.01500234 0.024097554 -0.00062107854
0.037894547 0.03809148 -0.0055847173 0.012079421 -0.021435104 -0.0061067464 -0.036184113 -0.014868876
-0.05100434 -0.002899947 -0.027998248 0.021571819 -0.020636873 0.028604237 0.016203936 0.016295057
0.008803155 -0.040229507 -0.024966745 -0.024809811 -0.012817759 0.0032517253 -0.016957175 -0.002627192
-0.005924886 0.043682724 0.012265901 0.010643878 -0.009021272 0.017894499 -0.012941146 -0.00866301
-0.0004777577 -0.007388761 0.0017174387 0.014193395 0.0067174346 -0.0027960371 -0.0073833265 -0.017045213
0.0022745375 -0.037632275 0.0018226451 -0.017792113 -0.02172153 -0.039625857 -0.01141059 -0.0031180046
-0.006601415 -0.023327017 0.008883078 0.015856603 0.04141696 0.0072316783 -0.008592277 0.031003742
0.010262032 0.021703219 -0.009926257 0.028069932 -0.0063010342 0.0061970227 0.020260658 -0.016617857
-0.016033916 0.021225236 -0.0035948562 0.01918352 -0.0034425296 -0.023635782 -0.03821623 -0.004244415
0.014727583 0.012616683 0.0038821616 0.011220639 -0.026355378 -0.025855877 -0.044305734 -0.04154201
0.023846267 -0.029132886 -0.006635693 -0.025858322 -0.013301958 -0.010808439 -0.017314693 0.003795038
0.005982999 -0.022911921 -0.04442214 -0.008171148 0.020723568 -0.021142688 0.026054569 -0.016502324
-0.04881805 -0.004025221 -0.013619985 0.0046019126 -0.03464642 0.0058330083 -0.016737813 0.008745105
-0.040913064 -0.024894878 -0.025040453 -0.02117306 -0.02906038 0.019026712 -0.0071229027 -0.02306136
-0.020289095 0.014941724 0.0018120036 -0.007875205 0.007137197 -0.029131554 -0.041881267 0.01487609
0.0037529478 0.012957811 0.013845141 -0.0040343795 0.004254406 0.022930784 -0.0048106117 -0.025143383
-0.0074407156 0.032283667 -0.008860382 0.026189558 0.053673584 0.044395607 0.037872255 -0.0006360323
0.01661315 0.012887265 0.035576068 -0.00011678142 -0.00020848171 -0.0052223876 0.03964673 -0.0026403018
0.026151069 0.010639669 -0.01058495 0.030828994 0.023021929 0.009297353 0.0021916404 0.00068653055
0.027497625 0.0041303392 0.03656546 0.009716172 0.012408757 0.011556214 -0.0033421363 -0.013017454
0.041654903 0.0077331495 -0.004149114 -0.015503407 0.014596356 -0.0024246362 -0.024286877 -0.015386094
-0.0045336704 -0.0029288365 -0.0058385283 0.0043158554 -0.007254575 0.017611276 0.03416806 0.01812888
-0.038125444 -0.0057419627 -0.02328862 -0.016520167 0.0066505647 0.0123477 -0.01003294 -0.025233572
-0.0080346605 -0.0129028475 0.02267615 0.00533648 -0.0029470024 0.03437722 0.021708978 -0.024997948
-0.005239006 0.013879187 0.014941256 0.006432088 -0.016684705 -0.003588691 -0.024503548 -0.041122306
0.0033147288 -0.014299252 0.016918425 0.003889978 -0.009237014 0.036159422 0.0074191857 0.004831207
0.0064578797 0.0059204595 -0.036456093 -0.012944284 0.04132618 0.02671953 0.03769674 0.0030358878

dec5_conv.bias f4 [64]
00000000: 837d 203c 35c8 6a3d dd2b cbbc d50f 523d
00000010: 5cc9 273d 4d58 813d 1aca 783d f118 023d
00000020: b3b6 443c 161a e53b 3d6e 093d 28eb 2f3d
00000030: 050b 15bc 75ed a63c c625 ac3c d28e acbc
00000040: 8a55 4fbc b502 263c 40ac 3fbc bc36 883c
00000050: ac4f 0a3d c0c2 1fbd f071 7cbc 2408 833c
00000060: 8a05 8e3d b45b ea3c 8c51 38bd 23cf 443d
00000070: 4860 5abd c724 7d3d 7599 983c ee84 3f3d
00000080: 7191 5fbd 0955 59bc aa16 603c e928 1abd
00000090: 7ad8 0d3d 6e9f 7d3d a148 77bc 875d 863d
000000a0: 1f44 493d 528c 2d3d 555d afbc c6ce 91bc
000000b0: 25c3 a23c 52ae a139 4e15 2cbd 48f3 e23c
000000c0: 5054 a0bc ca22 5a3c 5c49 73bd c861 12bd
000000d0: 6976 1fbd f092 813d 7acc 863c e010 49bc
000000e0: 8e4b d03c 7abd 8f3d 4dc7 1c3d 2209 5d3d
000000f0: 5b81 e63c 4f8d fdbc 833d 9cba d400 663d
0.009795549 0.05731984 -0.02480119 0.05128463 0.040963516 0.0631567 0.060739614 0.031762067
0.0120064495 0.006991635 0.033552397 0.04294887 -0.009096866 0.0203769 0.021014106 -0.021064196
-0.012654671 0.010132481 -0.011698782 0.016627662 0.033767387 -0.039004087 -0.015408024 0.015995093
0.0693465 0.02860818 -0.044999644 0.048049103 -0.053314477 0.06180265 0.018627862 0.04675763
-0.054582063 -0.013264903 0.0136772785 -0.03763667 0.034630276 0.061919622 -0.015093 0.06560808
0.04913723 0.042370148 -0.021406809 -0.017798793 0.019868443 0.00030838192 -0.042012505 0.027703896
-0.019571453 0.013313958 -0.059396133 -0.035737783 -0.038931284 0.06326854 0.016454924 -0.01227209
0.025426652 0.07018562 0.038276006 0.053963788 0.028137853 -0.03095117 -0.0011920187 0.056153134
